Learning PyTorch/checkpoints/my_checkpoint.pth.tar (torch, 114943 bytes, 18 tensors)

conv1.weight f4 [8, 1, 3, 3]
000000 8c bc dc 3e 2a a1 c8 3d 26 4c f8 bb 1d 1a 67 3e
       0.431126 0.097963646 -0.007577437 0.22568555
000010 60 29 aa bc 8f 48 57 3e c7 ec 8c 3e 3b 2c 1b 3f
       -0.020771682 0.21023773 0.27524397 0.60614365
000020 4e 06 4d 3e 6d 30 21 be a1 e7 8e 3e 1f 33 9a bd
       0.20021936 -0.15741129 0.27911094 -0.07529282
000030 a5 34 ac be 1b 9f cf 3e 1d c6 25 3f 2c 20 9c 3d
       -0.33633915 0.40551075 0.6475542 0.07623324
000040 c7 7a 18 3f e2 95 18 3f f6 42 b1 3e 9d 78 b2 3e
       0.59562343 0.59603703 0.346214 0.34857646
000050 b4 97 4d 3c ab 93 7d 3f a0 4b 18 3f 2a d0 fe 3e
       0.012548376 0.9905345 0.59490395 0.49768192
000060 c8 93 49 3f e2 c7 17 be f5 7e d1 be 3e d1 a6 3d
       0.7874112 -0.14822343 -0.40917173 0.081453785
000070 4d 40 3d 3d 7d c8 84 3d 35 ba 0f be e6 ca f7 3d
       0.0462039 0.064835526 -0.14035876 0.12099247
000080 bb 45 d0 3e 4f 61 fa 3e ac 81 3a 3f 7f 1b a3 be
       0.406782 0.48902366 0.72854114 -0.31856915
000090 92 ce 64 3e c0 43 6d 3e 58 df 07 bf 70 6e 28 3f
       0.22344425 0.23170376 -0.5307517 0.65793514
0000a0 e5 64 66 3e 59 49 5f bf a2 57 dc 3e 55 f3 01 3f
       0.22499426 -0.87221295 0.4303561 0.5076192
0000b0 40 ea 1c 3e 40 33 07 bf 07 da 31 bf f8 98 23 bf
       0.15323734 -0.52812576 -0.6947331 -0.63905287
0000c0 a3 0b 4f 3e 18 6a cc 3e 84 b1 3d 3e 3d 67 ad 3e
       0.20219283 0.39924693 0.18524748 0.33867827
0000d0 01 49 c8 3e 50 92 49 3f 6b a5 83 bf f9 13 d4 be
       0.39118198 0.7873888 -1.0284857 -0.41421488
0000e0 a0 03 3b 3f c4 2a 43 3e 1e f9 49 3f e5 de f5 3e
       0.73052406 0.19059283 0.7889575 0.48021618
0000f0 74 b4 8a 3e 93 a0 95 3e b3 9c 87 be 7b 12 5b be
       0.270908 0.2922407 -0.2648674 -0.21393768
000100 a8 42 8f bf 38 31 9d bf 27 ad 8b 3f 9c 3c 69 3e
       -1.1192217 -1.2280645 1.0912217 0.22777027
000110 54 98 97 be 15 93 48 3f 40 7e b7 3e 43 28 86 3e
       -0.29608405 0.7834943 0.3583851 0.26202592

conv1.bias f4 [8]
000000 24 d5 9f be d0 63 87 bd 5f ef 9e bc 8e 39 2e be
       -0.312173 -0.066108346 -0.01940125 -0.17014143
000010 7f 53 ce bd 91 a0 95 3c a0 6e aa bd 6f 98 8b 3d
       -0.10074519 0.01826504 -0.08321881 0.06816184

conv2.weight f4 [16, 8, 3, 3]
000000 02 c2 e2 bd 56 f4 ce 3d a2 89 4b 3d 9a 76 35 3e
       -0.1107216 0.10105197 0.049691804 0.17721024
000010 4c b5 9d 3e 3e b1 17 3e d4 1c bf bd 10 f6 3f be
       0.3080238 0.14813706 -0.093316704 -0.18746209
000020 b0 14 5f be 33 60 3a be ea cd d0 3d 87 81 12 bb
       -0.21785235 -0.1820076 0.10195525 -0.0022355036
000030 b4 a5 48 3e b1 9e cb 3e 46 77 46 3e dd 3e 97 be
       0.1959446 0.3976951 0.19381437 -0.29540148
000040 e0 a4 d9 be d4 4d c1 be ae 26 2d bb 10 e0 48 be
       -0.42508602 -0.3775469 -0.002642076 -0.19616723
000050 80 e3 c9 be 6c 09 e4 bd 3d 1c 1c 3e 04 95 a0 3e
       -0.3943138 -0.111346096 0.15245147 0.3136369
000060 3e b5 d6 3d ce 0b a2 bc 70 1a 5e be 7f f3 cb 3c
       0.10483788 -0.01978102 -0.21689773 0.024896381
000070 ab d7 f7 bd 96 36 90 3c 89 01 8f 3e 62 4a c2 3e
       -0.12101682 0.017604154 0.2793086 0.37947375
000080 f6 32 8d 3e 50 62 a4 be 4b 0e c5 be 05 86 57 be
       0.27577943 -0.32106256 -0.38487467 -0.21047218
000090 8c 7a 03 3d d7 33 e4 bd 00 90 fb bd f4 d3 5c 3d
       0.03209929 -0.111427 -0.12283325 0.05391307
0000a0 36 c9 0d 3e a9 20 26 3e ea 20 61 be 68 1a 98 be
       0.13846287 0.16223396 -0.21985212 -0.29707646
0000b0 20 1c 02 be 9b ea c8 bd 4b a3 ac 3c b9 22 52 3e
       -0.12706041 -0.098103724 0.021073958 0.20521058
0000c0 af 18 c4 3e b9 fe fb 3e 92 a1 8c 3e 9a 00 e8 be
       0.38300082 0.49217775 0.27467018 -0.4531296
0000d0 06 1f fa be 33 31 a2 3d e8 fb e7 3d 63 0a bb bd
       -0.48851794 0.0791954 0.11327344 -0.091328405
0000e0 eb 29 79 bd 0b 02 36 3d d8 3c 9c 3e ab 23 f6 3e
       -0.06083099 0.044435542 0.3051517 0.48074088
0000f0 3d ee 00 be 47 53 f4 bd 05 fb a5 be fa ca 46 be
       -0.1259088 -0.119299464 -0.32418075 -0.19413367
000100 f3 95 ad be b4 5b 81 be 4b 5f 83 3e fe dc 66 bc
       -0.33903465 -0.25265276 0.2565864 -0.014090775
000110 57 3a a3 bc 3f fa 25 bc e6 ef 8d be 13 4f dd be
       -0.01992528 -0.010130464 -0.2772209 -0.4322439
000120 76 d2 8a be 89 9a 48 3e 35 a1 91 3d 0b 30 08 be
       -0.27113694 0.195902 0.07110826 -0.13299577
000130 db 13 d3 3d cd 7a 73 3e de 78 1f be 22 24 81 3e
       0.103065215 0.23777314 -0.15573451 0.2522288
000140 da 28 a7 3e 40 7b 05 3c c2 e9 a5 3e f0 2b dd bd
       0.32648355 0.008147061 0.32404906 -0.10799396
000150 d6 de 08 3e 19 d4 ea 3d 65 69 f2 3d 68 77 56 be
       0.13366255 0.11466236 0.11836509 -0.20943987
000160 b2 27 b0 3e ad 33 9c 3c 1d e7 9c be d9 f8 df bb
       0.34405285 0.01906761 -0.30645075 -0.006835085
000170 6c c4 f9 3d 40 9f d1 bd 70 d1 00 3b 4c 91 02 3e
       0.121956676 -0.10235453 0.0019656084 0.12750739
000180 06 41 12 bd bc 4d 0e be a8 29 94 3e 38 c4 b1 be
       -0.035706542 -0.13896841 0.2893803 -0.34720016
000190 e1 68 a5 3d 4c d3 59 3d b1 b9 cc bd c2 50 f6 3d
       0.08076645 0.053180024 -0.09996355 0.12027122
0001a0 44 78 21 3e 48 ba 8f be df de 31 3a fd 3b 9e 3e
       0.15768534 -0.2807181 0.00067852245 0.30905142
0001b0 64 69 2b bf 1e b0 39 3e 76 7c 82 3e c9 ea 53 be
       -0.6695769 0.1813359 0.2548558 -0.20695032
0001c0 c6 a9 ae 3d f1 86 6e 3e c2 21 86 be 38 aa b7 3c
       0.085284755 0.23293664 -0.2619763 0.022420034
0001d0 61 f9 f4 3e 4c d1 57 be d2 7d 89 bc 8c fb 75 be
       0.4784651 -0.21075934 -0.016783629 -0.24021739
0001e0 ee 99 53 be 03 4b 55 bd 67 c3 b7 be 6d 70 9a be
       -0.20664188 -0.05207349 -0.35891268 -0.301639
0001f0 6a a9 4a be db 99 3d bf 6c 52 c5 3d c0 c6 d5 3c
       -0.19791189 -0.7406289 0.09634861 0.026095748
000200 6e 95 48 bd 16 28 43 3e bb fb 58 3d 70 d8 82 be
       -0.048970632 0.1905826 0.052974444 -0.25555754
000210 d9 00 ef bd 2c 57 cc bd d8 3a 32 be 80 1c 14 bf
       -0.116700836 -0.09977564 -0.1740526 -0.5785599
000220 bf 90 82 be 6b 43 42 be e2 3a 98 be d5 96 0b bf
       -0.25501058 -0.1897103 -0.29732424 -0.54527026
000230 61 fb 10 be b5 07 3f bf 2e 37 6b bf 33 fc 4d 3c
       -0.14158393 -0.74621135 -0.9188107 0.012572336
000240 c0 4a 17 be 2e ae 1d bc 1e eb 21 3e 68 70 17 3e
       -0.14774609 -0.009624047 0.15812346 0.14788973
000250 c9 5f 2b 3e b0 30 1e 3e d5 3a 66 3e 5f 78 06 be
       0.16735758 0.1544826 0.2248338 -0.13131855
000260 e3 8b 2c be 2b e9 eb bd e0 b5 07 be df a4 1f 3e
       -0.16850238 -0.11519083 -0.13252974 0.15590237
000270 ac a4 9e 3d a4 45 d1 3e 21 03 99 bb 61 2b 2b 3e
       0.077462524 0.40873444 -0.0046695624 0.16715766
000280 8a de c7 bd 3a 06 12 bf a9 3d 90 3d 69 99 70 be
       -0.09759243 -0.5704075 0.07043011 -0.23496021
000290 87 15 4e be 5c 8c e5 be 1f a7 44 3e d5 78 67 3e
       -0.201254 -0.44833648 0.19204377 0.22604688
0002a0 eb 84 cd 3e 23 b0 02 3d 01 7e 51 be 6d 6c 24 be
       0.4014047 0.03190626 -0.20458223 -0.16056986
0002b0 79 5a 05 3d 97 fd 17 3e d5 1c 88 bc fe dd c0 3e
       0.032556985 0.1484283 -0.01661531 0.37669367
0002c0 02 18 cb 3d 2e ca 8d 3e dd dc b8 bc df f1 d2 bd
       0.099166885 0.27693313 -0.022566253 -0.103000395
0002d0 a1 28 d4 bd 60 cb 59 be 21 5c 65 be d5 ad ef bb
       -0.10359312 -0.21268988 -0.22398426 -0.0073144236
0002e0 23 1e d2 3d a9 56 9a bd e9 a7 33 be 2a 95 9d 3d
       0.102596544 -0.0753606 -0.17544521 0.076944664
0002f0 5c 67 96 bd b1 a5 64 be a5 bf 50 bd 82 03 b7 3e
       -0.07343933 -0.22328831 -0.050964016 0.35744864
000300 a0 ad a8 3e ef a7 58 3e 69 84 12 be 93 db f3 3d
       0.32944965 0.21157812 -0.14308323 0.11907115
000310 42 76 35 bd 8b d3 a0 be 51 31 7e be 5d ca 54 be
       -0.044302233 -0.31411394 -0.248235 -0.2078032
000320 c1 62 7c 3d 2d ed 0b be f4 a6 e5 3e 01 1c 89 3e
       0.061617617 -0.13664694 0.44853938 0.26779178
000330 a8 cd d6 3e d5 70 5d 3e 68 7c b8 be 4e 71 cd 3d
       0.41953778 0.21625073 -0.36032414 0.10031377
000340 97 dd 1f 3e 4f 3e 7a be de af b9 bd 3e 2c fe be
       0.15611874 -0.24437831 -0.09066747 -0.4964313
000350 79 7d 32 bf 47 bf 3b be 6d 71 db be 8d 14 6c 3e
       -0.69722706 -0.18334685 -0.42859975 0.23054715
000360 8b 75 6b 3d ed c3 91 3c 69 a0 68 be 6f f9 4a 3e
       0.057485145 0.01779362 -0.22717442 0.19821714
000370 c2 7c 96 be 47 9b 87 3d 2c d7 b8 bd ac 1f 08 be
       -0.29392058 0.06621414 -0.09025416 -0.13293332
000380 89 e2 43 3e 3f 0d a4 3e 3d 0a fb 3c 2e 6c b8 be
       0.19129385 0.32041356 0.03064453 -0.36020035
000390 e4 64 89 3d 92 12 12 bf 31 9d cf 3e 85 74 24 be
       0.067086965 -0.57059586 0.40549615 -0.16060074
0003a0 d5 07 18 be 2f 0e 84 3e 9a e0 8d 3e d4 10 a3 3d
       -0.14846738 0.2579207 0.2771042 0.07962194
0003b0 be 60 f4 be 8f 7f ff 3e 30 db 84 bd 07 3f 5e be
       -0.47730058 0.49902007 -0.06487119 -0.2170373
0003c0 70 83 8a 3e 76 e9 00 bf 07 50 11 3e 8e 6b 9d 3e
       0.27053404 -0.50356233 0.14190684 0.3074612
0003d0 1e ff 80 bd a4 0a bf be 18 b5 0e 3e 56 f5 e3 be
       -0.0629866 -0.37312806 0.1393627 -0.44523114
0003e0 11 15 40 3e 8e 6a 88 ba ed 8b 30 be 77 d6 83 3d
       0.18758036 -0.0010407732 -0.17240877 0.0643739
0003f0 d7 55 2b 3e 25 91 61 3e c6 61 dd 3d 82 32 aa 3e
       0.16731964 0.22028024 0.108096644 0.3324166

conv2.bias f4 [16]
000000 f0 9c 22 bc 80 2c 97 bd 1d 84 16 be 24 a0 0a 3d
       -0.009925112 -0.073815346 -0.14698835 0.03384413
000010 dc 05 b0 3d 8a bd 90 be dc 87 49 be cf 2c b0 3d
       0.085948676 -0.28269607 -0.19680732 0.086022966
000020 95 c4 ec be 39 3a de be 26 78 f6 be da bb 4d be
       -0.4624373 -0.43403795 -0.4813854 -0.20091191
000030 84 93 f6 3d 56 ed 82 be e4 86 1f 3c ca f4 7c be
       0.12039855 -0.25571698 0.00973675 -0.24702755

fc1.weight f4 [10, 784]
000000 0a 91 bf 3d 86 02 00 3e 1e 8f cd 3d e6 e1 80 3d
       0.09353836 0.12500963 0.10037063 0.06293087
000010 51 4d c9 3c e9 49 95 be d3 e5 a4 be 78 b9 7a bd
       0.024573 -0.2915795 -0.32206592 -0.061212033
000020 91 d6 3b be 15 0d 24 be 55 38 81 bd b8 9e 56 be
       -0.1834357 -0.16020615 -0.063095726 -0.20958984
000030 62 83 53 bd 01 f2 68 3d 20 5d e1 be a5 63 75 3e
       -0.05163897 0.056871418 -0.4401636 0.23963793
000040 72 6d 55 be 63 0f fc bd b0 d1 aa be 51 8d b4 be
       -0.20842531 -0.12307622 -0.33363104 -0.35264066
000050 a6 bc a0 bd d3 d5 88 be 7a 4a 9f bd 76 7d f3 3c
       -0.07848482 -0.26725635 -0.07777877 0.02972291
000060 65 85 0e bf 4b c2 a3 be 35 90 02 3e b9 81 08 39
       -0.55672294 -0.3198417 0.12750323 0.00013018296
000070 f1 b8 a7 3d 59 4e fa 3d cb c0 a6 bd 05 ba bb 3d
       0.08189572 0.12221975 -0.08142241 0.0916634
000080 ac ea 43 3d 57 af 6d 3d f4 02 bf bd a8 b5 93 bd
       0.047831222 0.058028545 -0.09326735 -0.072123826
000090 6f 5c da bc 2e 93 a7 bd 89 4c 79 bd 8d 02 8a 3c
       -0.026655404 -0.08182369 -0.060864005 0.01684692
0000a0 7b 72 05 be c6 5c c2 3d 37 e1 c9 3e fb d8 73 be
       -0.13031952 0.094903514 0.39429638 -0.2381324
0000b0 a5 9b 98 be 03 89 34 3e 48 3e 88 bb 52 e2 ee bd
       -0.29806247 0.17630391 -0.004157815 -0.11664261
0000c0 66 25 58 bc be 8d 21 be 01 2d 98 3d 28 9e df 3c
       -0.01319251 -0.15776727 0.07430459 0.027297094
0000d0 f0 be cb bd 44 4d 48 be f5 d7 a9 bd c2 ee 52 3c
       -0.09948528 -0.19560724 -0.08293144 0.012874307
0000e0 cb 54 9d be a2 f8 a8 3d 32 e9 08 3d 58 be 42 be
       -0.30728754 0.08250548 0.033425517 -0.19017923
0000f0 b1 5d fb 3c ac 70 f0 3c c4 5e 6d bd 21 f0 00 be
       0.030684324 0.029350601 -0.057951704 -0.12591602
000100 02 94 35 3d 98 a4 02 3d 1c 35 33 be 85 81 59 3e
       0.044330604 0.03189525 -0.17500728 0.21240814
000110 c2 54 81 3e 90 a2 86 bd 7a 54 d7 bd 36 d5 c0 3d
       0.25259978 -0.06573975 -0.105141595 0.09415667
000120 e7 d0 45 bd 8b c7 ca be 35 0f 31 3c 55 f3 e3 3d
       -0.048294928 -0.39605364 0.010806848 0.11130396
000130 78 09 4d bd b6 21 b4 3d e3 b1 e2 3c 2e 05 82 3d
       -0.05005786 0.08795492 0.027672714 0.06348644
000140 e6 a8 6b be 03 ad 58 be cf 98 a6 3d 0a d3 db bd
       -0.23013648 -0.21159749 0.08134615 -0.10733612
000150 d8 02 7a 3e d2 1f d8 3d 44 a3 2e 3e 41 07 0e be
       0.24415147 0.10552944 0.17054468 -0.13869955
000160 12 11 b2 be 50 94 ab be 4a eb 10 be df 94 4c 3d
       -0.3477865 -0.3351159 -0.14152256 0.049946662
000170 dc c2 2a 3e 88 5e 6b bd b0 ad 9e bd 6d 77 2f bf
       0.16675895 -0.0574632 -0.07747972 -0.68541604
000180 d7 a1 0e bf b7 43 9c bc d1 f4 5f bc 58 23 21 be
       -0.557157 -0.019075258 -0.013669209 -0.15736139
000190 0e e3 bf 3b 96 77 d5 3d b9 11 d9 bd 26 e3 e6 3d
       0.0058559244 0.104232 -0.105990835 0.11273794
0001a0 c6 11 8b 3e 55 86 8d 3d 27 0a 1f be 23 33 4c 3d
       0.27161998 0.069103874 -0.15531217 0.049853455
0001b0 4b 09 8c bd 22 61 3d 3d f0 44 9c bd fd 79 c0 bd
       -0.0683771 0.04623521 -0.07630336 -0.093982674
0001c0 3a 6a 0c bf 1a 59 97 3d 3b 86 4e 3d f7 0e 98 3d
       -0.5484959 0.07390042 0.05042098 0.07424729
0001d0 14 47 a6 be 9d 04 0f be 37 87 88 be c2 cc fa be
       -0.32476103 -0.13966604 -0.2666566 -0.48984343
0001e0 c0 ed 2c 3e ec 1d ae 3d ce 0b 82 be 8d 2c 94 bc
       0.1688757 0.08501801 -0.2539963 -0.01808765
0001f0 f9 1c 1a 3e d5 87 5b be 81 53 25 3e 4a a0 e9 3c
       0.15050115 -0.21438535 0.16145135 0.028518815
000200 84 6f 23 bd d1 bc 90 3d b2 b9 9a 3d ed 8f 55 3d
       -0.03990127 0.07067264 0.0755495 0.05213921
000210 3c 1a 1f be 25 ad 21 be a9 af 8d bd 28 0a d7 3d
       -0.15537351 -0.15788706 -0.0691827 0.10499984
000220 78 92 92 bb e7 96 d4 3d f3 d5 15 3e ee 03 8e 3e
       -0.004473027 0.10380345 0.14632396 0.27737373
000230 61 aa 72 3e fa 86 84 be a9 35 e2 be c9 05 0f be
       0.23697807 -0.2588423 -0.44181564 -0.1396705
000240 3e 7d 3a be 50 a3 87 be 1c b5 bf ba f4 07 0d 3e
       -0.18211839 -0.26491785 -0.0014626118 0.13772565
000250 18 a2 ac 3d 09 fe 4d bc 78 32 66 3c cd 4a 43 3e
       0.084293544 -0.012572774 0.014050119 0.19071503
000260 5b 7e 05 be 8f 42 09 bf 38 64 2f 3d 7e fc a9 3a
       -0.13036482 -0.53617185 0.042820185 0.0012968925
000270 8b b1 c5 bc 7a 86 37 3d 38 39 c8 be 6f 6f ce be
       -0.02413251 0.04480598 -0.39106154 -0.40319392
000280 e9 b2 2a be fa 4a de 3d f8 a3 29 bd f3 44 97 3d
       -0.16669811 0.108541444 -0.04141614 0.07386198
000290 8b cc 96 bd 4f 15 c8 bd 60 6f 8e be 02 c3 f3 bd
       -0.07363232 -0.09769689 -0.27819347 -0.11902429
0002a0 b5 22 49 3d 7d 47 f3 bc 98 9c 93 3c 41 11 65 3e
       0.049105365 -0.029697174 0.018019006 0.22369863
0002b0 d1 3a 3b 3e 7a 34 0c 3e 40 15 e0 3d 48 4f 9d be
       0.18284155 0.13691893 0.10941553 -0.3072455
0002c0 95 dd da bd 8c 28 36 3c 8f 6e 15 3e aa a7 67 3e
       -0.10686795 0.011118066 0.14592956 0.22622553
0002d0 c3 80 24 3e 13 58 a6 3d f2 22 09 bd be b7 2b bf
       0.16064744 0.081222676 -0.033480592 -0.67077243
0002e0 fd 3c 9f be 94 9a f3 3d 2f a3 98 bd 8f c5 f9 bd
       -0.31101218 0.11894718 -0.07453 -0.121958844
0002f0 1c c5 9e bd 71 bd ce be de 6b b0 be 93 6f 5c 3e
       -0.077524394 -0.40378907 -0.34457296 0.21526937
000300 e1 a4 41 bd 24 7c 15 be db 6e 6d 3b bd 1b d2 bd
       -0.04727638 -0.14598137 0.0036229405 -0.10259197
000310 4b d5 0e 3e 8e ca 09 3e 31 b4 80 bc 13 de d7 bc
       0.13948552 0.13456175 -0.015710922 -0.02635101
000320 5c 8b 94 3b 2f 60 2e 3c 5e a6 1e 3d 60 bd a4 3c
       0.0045332145 0.010643049 0.03873288 0.020109832
000330 f7 8e 7f 3c ea c0 06 be c6 4b f3 3d 35 d0 87 3b
       0.01559805 -0.13159528 0.11879687 0.0041446933
000340 84 cd 65 bd 2f 91 6c 3e 69 38 c0 3d b2 ea ae 3d
       -0.056104198 0.23102258 0.093857594 0.08540858
000350 33 5d 7e 3c 2a 42 19 3c 85 b3 18 be 58 8a 9c be
       0.01552515 0.009354154 -0.14912231 -0.30574298
000360 fc e3 b5 be 66 3b e5 3c 32 f0 a3 bc 87 34 a1 be
       -0.355255 0.027982425 -0.020011995 -0.31485388
000370 39 7d ab be 35 6e 3f be a2 2b 8e bd cd 76 44 bf
       -0.33493975 -0.18694384 -0.06941916 -0.76743776
000380 4a d8 84 3c e3 d7 15 bf 1c ab be be 14 be 6c bd
       0.016216416 -0.5853254 -0.3723992 -0.05779846
000390 84 c4 e2 3d 59 24 9c bc df bc ad be 35 7f f5 bd
       0.11072639 -0.0190603 -0.3393316 -0.119871534
0003a0 33 c1 1e bf 70 67 e3 be ce b8 00 be 29 fd fa 3d
       -0.6201355 -0.44414854 -0.12570497 0.12255318
0003b0 09 aa 11 3f 7a 0e 93 3e 25 fc 28 3e 43 dd 97 be
       0.5690008 0.28721982 0.16502436 -0.29660997
0003c0 c7 be 0e bf 26 66 85 3e 5f 11 f4 bc da 1a 12 3e
       -0.55759853 0.26054496 -0.02979344 0.14268056
0003d0 37 a2 0e 3e 40 08 46 3d 10 81 61 3c a0 2e d3 be
       0.13929068 0.04834771 0.013763681 -0.4124651
0003e0 09 02 4c 3e be 38 af bd b3 b2 51 3d 58 57 ae be
       0.19922651 -0.085557446 0.05119581 -0.34051013
0003f0 07 8e 80 be c0 18 57 bd 9b 42 ac 3c 80 31 ed 3d
       -0.25108358 -0.052513838 0.021027854 0.11581707

fc1.bias f4 [10]
000000 6f e2 11 3e b4 55 eb 3d ad 21 b3 3d 2d dc e2 bd
       0.14246534 0.11490956 0.087466575 -0.110771514
000010 da 7e 08 be da ae 48 3d 56 e8 30 bc 8d 92 54 bd
       -0.1332964 0.048994876 -0.010797581 -0.051897574
000020 cc f7 44 bc 9b 4b a8 bb
       -0.01202197 -0.005135966

exp_avg f4 [8, 1, 3, 3]
000000 40 ac a7 3b 07 de d3 3b 71 0e 9f 3b 1d f8 d5 3b
       0.0051169693 0.0064656767 0.0048540165 0.0065298215
000010 4a 08 01 3c d0 6c ef 3a dc 18 40 3b 9a 9d 30 3b
       0.007875511 0.0018266682 0.0029311692 0.0026949407
000020 11 9c 9c 3a 1b 75 af ba 13 f4 b8 b8 3e 50 41 3a
       0.0011948367 -0.001338634 -8.819266e-05 0.0007374323
000030 04 85 6a b9 9b df 8a 3b d8 95 ca 3b a1 b8 cd b8
       -0.00022365531 0.0042380816 0.0061824135 -9.8095516e-05
000040 cc 9d 7e 38 32 29 72 3b 2b b8 38 3b 13 5d b8 3b
       6.070528e-05 0.0036950824 0.0028185945 0.0056263297
000050 e2 6e 88 3b fc 73 c9 3a a9 92 8b 3b dc bc 1e 3b
       0.004163609 0.0015369649 0.0042594266 0.0024221456
000060 72 08 a2 bb 2d df 62 bb 50 28 a7 b9 30 5b 20 3b
       -0.0049448544 -0.0034617886 -0.00031882757 0.0024468414
000070 7f 2c da 3a e1 dc ab 3a 85 4c 43 3b 2c df 51 3b
       0.0016645341 0.0013112092 0.0029800248 0.003202389
000080 70 da c0 3a 96 0c 48 3a 01 2c 3d ba 41 a4 ec 39
       0.0014713537 0.000763127 -0.0007216335 0.00045135806
000090 21 9f 53 3c 27 41 2e 3c 78 e2 be 3b 5d 36 28 3c
       0.012916357 0.010635651 0.005825337 0.0102668675
0000a0 b3 cd 9f 3b 92 31 6b ba 2e 4d 26 bb 14 bd 16 bc
       0.004876816 -0.0008971925 -0.0025375593 -0.009200353
0000b0 c0 aa 13 bc 15 13 a1 b8 d9 ab ac bb bc de 50 bc
       -0.009012878 -7.6806326e-05 -0.0052695093 -0.0127484165
0000c0 d3 44 7e ba e2 3a 39 bb e2 3b eb bb f2 d1 dc bb
       -0.00096995867 -0.0028263857 -0.0071787694 -0.0067388946
0000d0 69 af 3f bb 26 a8 00 39 87 10 92 3a 08 15 fe ba
       -0.002924884 0.00012269671 0.0011143842 -0.001938493
0000e0 4a 6f 02 bb fa d6 36 bb bc 36 15 bb 44 41 10 3b
       -0.001990276 -0.0027899132 -0.002276822 0.0022011558
0000f0 f6 52 c4 bb 05 5d 97 bb d6 a0 23 3b 3b 84 e4 39
       -0.005991335 -0.004619243 0.0024967692 0.00043586068
000100 17 84 56 ba 97 05 79 bb c7 34 24 bb 62 b2 17 bb
       -0.0008183135 -0.0037997717 -0.0025055872 -0.0023147096
000110 ff 1c 1f bc 7b e7 2e bc a7 99 27 bc 13 2d 69 bc
       -0.009711503 -0.010675306 -0.010229505 -0.014231938

exp_avg_sq f4 [8, 1, 3, 3]
000000 57 5d b8 38 f5 c2 ca 38 6b d2 94 38 9d 1c b5 38
       8.7911896e-05 9.668424e-05 7.096383e-05 8.636082e-05
000010 19 05 be 38 2b 10 99 38 31 7b a9 38 db d5 a8 38
       9.0608555e-05 7.29862e-05 8.081494e-05 8.050698e-05
000020 09 e9 8f 38 89 69 6a 38 1f 85 e3 38 08 59 23 39
       6.8621775e-05 5.5888235e-05 0.00010848999 0.00015578058
000030 3e 08 70 38 1b 40 d2 38 73 be 0e 39 d7 e5 9b 38
       5.7228135e-05 0.00010025521 0.00013613123 7.433787e-05
000040 03 d3 d8 38 60 80 f9 38 fe 6a 96 38 4e 14 8c 38
       0.000103389866 0.00011897157 7.172486e-05 6.679502e-05
000050 79 e3 8b 38 75 7c 8f 38 1e 7a 78 38 3c 75 91 38
       6.6704066e-05 6.841953e-05 5.9241538e-05 6.9359754e-05
000060 de fc 94 38 cb 77 39 38 36 d7 39 38 10 61 48 38
       7.10429e-05 4.4219003e-05 4.4307868e-05 4.7774112e-05
000070 6c 5b 88 38 7c 9c 88 38 c0 ec 55 38 44 0f 6b 38
       6.502014e-05 6.514133e-05 5.1003648e-05 5.6042583e-05
000080 19 13 5a 38 ec b1 82 38 5c 57 77 38 e0 18 23 38
       5.1993036e-05 6.2320236e-05 5.897075e-05 3.8885395e-05
000090 4f f2 f7 39 58 90 e7 39 00 c0 80 39 5d 8d 01 3a
       0.00047292045 0.00044167298 0.00024557114 0.0004942024
0000a0 29 4a cc 39 39 32 4e 39 02 d0 03 3a 2e 43 e9 39
       0.00038965166 0.000196644 0.0005028249 0.00044491276
0000b0 8b e5 9d 39 9e 7c 85 39 e7 85 8c 39 d0 3a ad 39
       0.00030116396 0.00025460584 0.00026802646 0.0003304095
0000c0 3c 44 03 3a 1c ee 27 3a 9a 1d 36 3a fc 76 4b 3a
       0.0005007421 0.00064060255 0.000694716 0.00077615655
0000d0 35 3f 77 3a ad e5 6c 3a 51 e0 8a 38 b7 6d dd 38
       0.0009431721 0.000903691 6.622135e-05 0.00010558537
0000e0 d2 a1 27 39 8b 9f 12 39 c1 b7 32 39 cc b5 22 39
       0.00015986644 0.0001398308 0.00017043856 0.00015517249
0000f0 a2 a4 44 39 f1 d0 2c 39 e2 3b e1 38 7e f7 d6 39
       0.00018753347 0.00016481035 0.0001073999 0.00041001657
000100 b8 37 82 39 5d f6 1a 39 8e 5d 1a 3a cd 6e e9 39
       0.00024837046 0.00014778362 0.00058885745 0.00044523776
000110 35 41 e1 39 82 c1 46 3a e0 36 3b 3a fb e4 50 3a
       0.00042963927 0.00075819355 0.0007141661 0.0007968691

exp_avg f4 [8]
000000 22 03 70 3b 55 5e da 3a 1c 76 3a 3b 7a e1 d6 b9
       0.003662296 0.0016660193 0.0028451746 -0.00040985254
000010 89 9f c1 b9 81 1e df bb 3a e6 2e bb 3c ea 0d bd
       -0.00036930692 -0.0068090563 -0.0026687519 -0.03464721

exp_avg_sq f4 [8]
000000 61 91 ed 38 ec 0e 3e 39 4e c3 2e 39 cb 9e f4 38
       0.000113281196 0.00018125371 0.0001666669 0.00011664404
000010 19 a9 5b 3a f8 65 ea 3a aa 02 93 39 1b 87 52 3b
       0.00083793845 0.0017883172 0.0002804001 0.0032123986

exp_avg f4 [16, 8, 3, 3]
000000 26 c5 64 3b 09 38 45 3b 91 af 1a b9 31 33 06 3b
       0.0034907549 0.0030093214 -0.00014751988 0.002047729
000010 4f ca 39 3b da 9d 7f 38 bb 7d 18 ba df b4 82 b9
       0.0028349345 6.094375e-05 -0.0005817075 -0.00024930292
000020 01 0b 3a 3a c0 d9 dc 3b 50 c3 25 3b cd 8d 8b ba
       0.00070969766 0.006739825 0.0025293417 -0.0010647118
000030 79 b1 a3 3b 52 2f 26 3b 20 a8 04 ba 48 e3 19 ba
       0.0049955216 0.0025357795 -0.0005060453 -0.00058703544
000040 7f 10 a8 ba c7 0a a0 3a 65 bd a4 3b 8b 38 0c 3c
       -0.0012822299 0.0012210243 0.0050274604 0.008558403
000050 de c1 0a 3b f9 31 a5 3b 41 b0 c6 3b 65 80 a3 3a
       0.0021172683 0.0050413576 0.0060634916 0.0012474178
000060 af f6 d2 39 78 64 04 3a 97 94 68 b9 2d 28 5b 3b
       0.00040238115 0.00050503714 -0.00022180598 0.0033440695
000070 98 f7 1b 3b b3 19 f9 39 d6 2a f8 3a 0d 46 ef 3a
       0.00237987 0.00047512128 0.0018933665 0.001825513
000080 56 69 10 ba ba 8b 63 b8 9b 99 7b ba f4 bd 2f 38
       -0.00055088603 -5.4251148e-05 -0.0009597779 4.190016e-05
000090 25 7a 24 3b f5 3d c6 3b cb 35 bf 3a b0 79 94 3a
       0.0025097218 0.0060498663 0.0014588175 0.001132777
0000a0 11 41 a3 3b fe 8a 3f 3b 9d 49 74 ba e4 59 1c b9
       0.0049821218 0.0029227133 -0.00093188306 -0.00014910806
0000b0 70 69 1f b9 00 a4 40 3b 9c 6c 11 3b 2a 3d 8f ba
       -0.000152027 0.0029394627 0.002218998 -0.0010928262
0000c0 23 fd 6e 3a b4 88 0b 3b 07 e5 20 3b 39 5e 5c ba
       0.00091167 0.0021291198 0.0024550573 -0.0008406374
0000d0 77 78 0a ba 3f 50 58 39 9e 93 95 3b d9 48 dd 3a
       -0.0005282233 0.00020629259 0.0045647165 0.0016882672
0000e0 23 4c 01 3a 2e 50 57 3b 33 25 ef 3a a5 ef 26 ba
       0.0004932305 0.0032854187 0.0018245339 -0.0006368107
0000f0 96 b7 35 3a 03 7d c8 ba 15 26 52 ba 84 b0 59 3a
       0.00069319585 -0.0015296045 -0.0008016539 0.0008304196
000100 4a 59 97 3b 66 7f d3 3a 05 86 38 ba 1f 05 bb 3b
       0.0046187984 0.001613599 -0.00070390134 0.0057073976
000110 0b a8 ba 3b 3c 1f 71 ba cf ea 52 b9 1f 78 ca 39
       0.005696302 -0.00091980747 -0.00020114634 0.0003861794
000120 c0 dc 2c 3a 48 d0 8b 3a f6 27 15 3b 13 8a 00 3b
       0.00065941736 0.0010666931 0.0022759414 0.0019613549
000130 fd 73 4f 3b 28 9d a1 3a 05 bd 4a 3b 17 1c 77 3b
       0.0031654828 0.0012330161 0.0030935418 0.0037705952
000140 13 e7 06 3b cb c0 92 3a 07 c6 88 3b 6b 79 93 3b
       0.0020584508 0.0011196373 0.0041739973 0.004500558
000150 6a e0 94 3b db 2c bd 3b 73 37 10 3a 83 e0 bb 3b
       0.004543354 0.0057731695 0.00055014266 0.005733551
000160 e6 d6 c6 3b d0 b8 ae 3a 5f c7 cb 3a d1 50 02 3b
       0.0060680984 0.0013330225 0.0015547088 0.0019884596
000170 71 65 e8 3b 44 c1 52 3b c2 7d cd 3b f6 1c 05 3c
       0.007092171 0.0032158652 0.006271095 0.008124581
000180 28 1d d9 3b 18 e3 2c 3c f7 97 f2 3b fb cf 78 3a
       0.00662579 0.01055219 0.0074033695 0.0009491441
000190 db d6 04 3b be 21 7c 3b 34 ad 1f 3b de 5f 7c 3b
       0.0020269665 0.003847226 0.0024364712 0.003850929
0001a0 d5 70 2e 3b 18 0d 47 3b 22 7d 99 3b 72 78 08 3b
       0.0026617546 0.0030372795 0.0046841064 0.0020823744
0001b0 80 52 44 3a ee 53 7e ba de 53 21 3b 75 d3 b1 3a
       0.00074891 -0.00097018376 0.002461664 0.0013567047
0001c0 3b a7 f3 3a 88 ff 9c 3b 24 40 25 3b 37 60 a9 3b
       0.0018589267 0.004791204 0.0025215233 0.0051689404
0001d0 f6 fb 90 3b 59 be 2a 3b bd 03 81 3b cb 09 b0 3a
       0.0044245673 0.0026053397 0.003937213 0.0013430653
0001e0 df 05 2e 3b a9 14 80 3b 9d 8a 12 ba 49 53 87 3b
       0.0026553792 0.003908713 -0.0005590113 0.0041298014
0001f0 54 63 3c 3b 21 28 eb 3a 3b 9e 17 3a d0 97 84 3b
       0.0028745728 0.0017941036 0.0005783771 0.004046418
000200 28 2f c1 3b 7b ac 84 3b 8b 97 ca 3b b0 ca 41 3b
       0.005895514 0.0040488816 0.006182616 0.0029570274
000210 81 2f 84 3b 62 ec af 3b 3e 03 bd 3a 45 6a d6 3a
       0.004033983 0.005368755 0.0014420522 0.0016358575
000220 a0 17 d9 39 77 08 d6 b9 c6 84 59 3a e5 0f 3c 3a
       0.00041407067 -0.00040823568 0.0008297678 0.00071739993
000230 4a a4 43 3b 1d 3c 25 3b a9 1d d3 3a 40 4b 8b 3b
       0.0029852563 0.0025212832 0.0016106862 0.004250914
000240 f6 0a 83 b9 91 55 d6 b9 c4 2b 14 bb ae 95 d5 ba
       -0.00024994434 -0.00040881013 -0.0022609094 -0.0016295218
000250 ae 96 b3 ba 48 30 25 39 e9 be a9 ba 92 da d8 ba
       -0.0013701522 0.00015753612 -0.0012950572 -0.0016544631
000260 25 e3 45 b9 0c 4a 13 3a 8d 71 06 bb bc 10 f5 bb
       -0.00018872002 0.0005618639 -0.002051446 -0.0074788015
000270 01 d3 3f bb 6a a5 04 bb 09 59 a8 ba 2c 8d 52 bb
       -0.0029270055 -0.0020240196 -0.0012843917 -0.0032127602
000280 7e 52 8a ba e8 28 84 3a 65 28 6d b8 e9 96 1f 39
       -0.0010553149 0.0010082992 -5.6542824e-05 0.0001521964
000290 34 69 bf bb ab 9b 37 bb fc ae 8d bb a7 60 64 bb
       -0.0058413986 -0.002801637 -0.0043238383 -0.0034847648
0002a0 13 87 93 bb d9 5a 60 bb ee bc 24 3a 17 e3 fc b8
       -0.004502186 -0.0034233837 0.0006284256 -0.00012058595
0002b0 10 be 98 ba 91 e1 4f bb c2 ce d1 ba d0 95 19 bb
       -0.0011653323 -0.0031720141 -0.0016007053 -0.0023435242
0002c0 20 b0 99 b9 c0 52 06 bb 2a 63 c9 ba 1b 4f cd b9
       -0.00029313657 -0.00204961 -0.0015364636 -0.00039159585
0002d0 92 85 b9 ba c3 e8 c4 b9 47 dd 61 ba ca b9 fc b9
       -0.0014154187 -0.00037557454 -0.0008616042 -0.0004820361
0002e0 b1 5f af ba b6 c5 6b b9 26 68 34 b8 b4 c1 ff ba
       -0.0013379959 -0.00022485 -4.301234e-05 -0.0019512684
0002f0 b9 52 dc b8 0d 65 ae ba 45 1b 78 ba c7 ce bf b9
       -0.00010505826 -0.0013305262 -0.00094645127 -0.0003658442
000300 1e c5 ec ba 57 c2 f9 ba a2 cc 5a b8 e0 20 d2 ba
       -0.0018064117 -0.001905511 -5.216583e-05 -0.0016031526
000310 57 ea b1 39 5d 2b 68 3a 1b ba 1c 38 d7 65 11 bb
       0.00033934668 0.0008856559 3.7366623e-05 -0.0022185945
000320 8d e4 ba bb 4d 98 ae ba b9 47 66 bb 1e c1 4e bb
       -0.005703515 -0.0013320536 -0.0035137965 -0.0031548212
000330 24 18 3a bb 7a 7e 62 b9 3f 6e 40 b9 25 53 0f bb
       -0.0028395737 -0.00021600156 -0.00018351617 -0.0021869626
000340 b8 52 a4 ba 9f 1d 2c 3b 36 0c ec ba eb 14 33 bb
       -0.0012536859 0.0026262773 -0.001800901 -0.00273257
000350 c6 b6 0c 3a 49 30 d7 b9 2f df 8c b8 c3 ae be 39
       0.00053678115 -0.0004104397 -6.7172914e-05 0.00036369832
000360 4b 17 ef 3a 7f e9 6b 39 7e 95 3d ba d7 7f 84 ba
       0.0018241195 0.0002249833 -0.0007232054 -0.00101089
000370 9f e2 86 ba d4 f7 c9 ba b6 17 ad ba 24 1e aa ba
       -0.0010290927 -0.0015408942 -0.0013205919 -0.0012978953
000380 e1 4d c7 ba fa 3e 85 3b 37 e0 17 bb 59 54 f0 b9
       -0.0015205705 0.0040663453 -0.0023174414 -0.0004583921
000390 e6 ab 87 ba 3c 03 dd ba 13 a6 f3 ba 7a c4 d2 ba
       -0.0010350912 -0.0016861926 -0.0018588923 -0.0016080283
0003a0 b7 df 26 bb 08 34 df ba 11 b9 c8 3b 08 50 88 3b
       -0.0025462934 -0.0017029056 0.0061255773 0.004159931
0003b0 64 8f 11 bb 46 b2 81 39 5f c5 ac ba 61 d2 09 bb
       -0.0022210712 0.0002473762 -0.001318138 -0.0021029937
0003c0 71 fa a1 bb d9 fd f9 ba 14 08 9b bb 38 a3 08 3b
       -0.004943185 -0.0019072845 -0.0047311876 0.002084924
0003d0 2a 90 87 ba 28 c3 e1 b9 3e df d0 ba 10 40 65 ba
       -0.0010342647 -0.00043060747 -0.0015935672 -0.0008745203
0003e0 e0 67 d5 ba 70 c0 95 ba 85 7f ae ba 12 95 ed ba
       -0.0016281568 -0.0011425149 -0.001331315 -0.0018126091
0003f0 31 35 70 3b 82 8c c1 3a 90 55 01 39 73 f0 f2 b9
       0.0036652798 0.0014766606 0.00012334273 -0.00046336986

exp_avg_sq f4 [16, 8, 3, 3]
000000 fa f0 b8 37 e8 c6 11 38 96 8b 77 38 c6 1f 35 38
       2.2046723e-05 3.475594e-05 5.901939e-05 4.3183354e-05
000010 15 b7 74 38 82 5e 92 38 dd 8a 0c 38 eb b8 f7 37
       5.834464e-05 6.979426e-05 3.3507928e-05 2.9530804e-05
000020 26 ce 05 38 44 bf 5e 38 4b 49 d3 38 8b 3b 24 39
       3.190166e-05 5.3107055e-05 0.00010074916 0.0001566244
000030 97 72 e4 38 ca b0 19 39 a1 e9 19 39 50 27 89 38
       0.00010893231 0.00014657076 0.0001467825 6.5399916e-05
000040 58 db 51 38 72 51 7c 38 ee e1 be 38 f5 c2 e4 38
       5.0033763e-05 6.0157334e-05 9.101989e-05 0.00010908201
000050 4e 83 62 39 01 f2 49 39 5b 01 90 39 03 2a c2 39
       0.00021601954 0.00019259007 0.0002746683 0.00037033865
000060 b7 8b 5d 39 80 9f 59 39 5d 20 37 39 0c 7c 9c 37
       0.0002112825 0.00020754151 0.00017464296 1.8654413e-05
000070 50 08 01 38 35 ae 6e 38 91 5f 23 38 a8 a6 6b 38
       3.076374e-05 5.6905865e-05 3.895123e-05 5.6183577e-05
000080 35 75 76 38 1c 7b 02 38 e0 f1 c0 37 6c 3b 9c 37
       5.8760128e-05 3.110907e-05 2.3000815e-05 1.862432e-05
000090 7d 01 dd 37 16 6f cd 37 ba f0 1a 38 7e 91 27 38
       2.6345946e-05 2.4489633e-05 3.6940655e-05 3.9951403e-05
0000a0 43 91 0f 38 38 cc 44 38 df 77 02 38 ab b2 b3 37
       3.4229142e-05 4.6920235e-05 3.1106054e-05 2.1421662e-05
0000b0 db ab af 37 9b a5 02 38 b6 cd 79 38 bd 75 b3 38
       2.0941652e-05 3.1148647e-05 5.955781e-05 8.5573156e-05
0000c0 b3 3f 88 38 3d d5 a8 38 af 45 86 38 e2 ea 84 37
       6.49685e-05 8.050583e-05 6.4025975e-05 1.5845002e-05
0000d0 fd b5 9a 36 a6 ab f5 36 54 cc e6 37 cf da 4a 38
       4.610744e-06 7.3215515e-06 2.7513284e-05 4.8364334e-05
0000e0 97 f2 cb 38 62 e0 90 38 21 4b f2 38 5c 44 f4 38
       9.72498e-05 6.9082496e-05 0.00011553453 0.000116475596
0000f0 63 ce 82 38 d9 88 2a 38 d5 26 d4 37 f5 aa 1a 38
       6.2373256e-05 4.0658608e-05 2.5290452e-05 3.6875677e-05
000100 74 f3 24 38 45 98 76 38 20 24 99 38 eb 56 84 38
       3.932738e-05 5.8792783e-05 7.302337e-05 6.31044e-05
000110 ec c9 83 38 a3 b1 c4 37 93 1e c6 36 6e 85 3a 37
       6.284178e-05 2.344774e-05 5.904419e-06 1.111753e-05
000120 1f e7 91 37 73 db 75 38 93 a4 aa 38 5c c6 95 37
       1.7392971e-05 5.861693e-05 8.136886e-05 1.7854552e-05
000130 b9 14 86 38 fd ff bc 38 8a 1f af 37 11 35 6d 38
       6.393478e-05 9.01222e-05 2.0876312e-05 5.6554625e-05
000140 db e0 94 38 ae 0a 7d 38 5b 5d 2c 39 eb 4b 09 39
       7.0990725e-05 6.0329847e-05 0.00016437976 0.0001309362
000150 a0 34 97 38 3c 21 3b 39 d7 3f 11 39 ea 00 96 38
       7.210043e-05 0.0001784609 0.0001385206 7.1527276e-05
000160 00 c1 20 39 e9 3e cb 38 d7 da 8d 38 13 8e 4c 39
       0.00015330687 9.691512e-05 6.764166e-05 0.00019507883
000170 81 22 b9 39 39 dc 93 38 92 4a 79 39 22 16 d3 39
       0.00035311657 7.050526e-05 0.0002377427 0.00040261546
000180 6a 81 b3 38 d3 27 81 39 15 41 c0 39 ae ed 5d 37
       8.5594904e-05 0.0002463447 0.00036669584 1.3227966e-05
000190 33 e4 46 38 45 65 89 38 77 81 92 37 71 8b 63 38
       4.7419406e-05 6.551532e-05 1.7464843e-05 5.4250882e-05
0001a0 68 68 93 38 18 4a a1 37 47 3d 5a 38 bb 9d 58 38
       7.0289534e-05 1.9227198e-05 5.203232e-05 5.164531e-05
0001b0 d9 8a 87 36 2a 3c ed 37 3f 53 bb 38 9a 22 85 36
       4.0394775e-06 2.8280618e-05 8.932361e-05 3.967737e-06
0001c0 03 f0 b6 37 95 0d c6 38 2a 35 ac 36 60 4a ca 37
       2.1807855e-05 9.4439056e-05 5.1321886e-06 2.411491e-05
0001d0 1a 37 a7 38 b3 39 8f 37 2f 5f 4f 38 1e bd 62 38
       7.973444e-05 1.7073797e-05 4.9441293e-05 5.4058728e-05
0001e0 96 2e d2 37 68 8a 1e 38 83 6b 24 38 dd 0b 9e 37
       2.5055644e-05 3.7799036e-05 3.9200775e-05 1.8840592e-05
0001f0 d7 8c a8 37 7b 9d 6f 37 77 d2 ef 37 5d d3 ab 38
       2.0092744e-05 1.4282176e-05 2.8589026e-05 8.193285e-05
000200 93 01 a5 38 27 dd 45 38 a0 07 df 38 60 a2 9a 38
       7.868106e-05 4.7174424e-05 0.00010634889 7.373537e-05
000210 b0 0e 4d 38 83 12 c8 38 08 a0 4b 38 0e 42 9b 36
       4.8889488e-05 9.540191e-05 4.8548012e-05 4.6270497e-06
000220 c0 e0 d9 37 8f 5f bd 38 f7 6f df 36 26 e5 fe 36
       2.5973073e-05 9.0300215e-05 6.6589523e-06 7.5964663e-06
000230 20 19 8d 38 d0 0c 5e 36 39 b6 12 36 81 42 27 38
       6.728084e-05 3.3088036e-06 2.1861763e-06 3.987784e-05
000240 f8 69 90 37 a6 64 04 38 d2 fe 44 38 ba 1f dd 37
       1.7215483e-05 3.156499e-05 4.696736e-05 2.6360027e-05
000250 59 96 4f 38 00 b9 40 38 13 8e 16 38 c5 08 52 38
       4.9492668e-05 4.5948662e-05 3.5895104e-05 5.007607e-05
000260 fe db 05 38 80 93 1b 38 3f f2 c3 38 37 1f e3 38
       3.1914555e-05 3.709225e-05 9.3434464e-05 0.00010830018
000270 8f 19 ac 38 62 e0 04 39 1c 3c 94 38 3a 36 d5 38
       8.20636e-05 0.0001267209 7.068386e-05 0.00010166732
000280 3b b1 b4 38 49 4d 1f 38 03 ac ab 38 d2 df ce 38
       8.6160806e-05 3.798053e-05 8.185955e-05 9.864535e-05
000290 80 57 5b 39 dd 18 a7 38 85 df 61 39 2d 4d 88 39
       0.00020918064 7.967812e-05 0.0002154094 0.00025997442
0002a0 e6 02 1e 39 50 c8 86 39 35 01 32 39 8f 99 4e 37
       0.00015069134 0.00025707716 0.00016975852 1.231431e-05
0002b0 cc cc ea 37 7a d2 3c 38 50 70 c4 37 88 de 62 38
       2.799034e-05 4.5018714e-05 2.341732e-05 5.4089847e-05
0002c0 92 6a 27 38 01 38 15 38 4f 82 3a 38 d4 16 ae 37
       3.9915154e-05 3.5576526e-05 4.4467215e-05 2.0753047e-05
0002d0 6f 0a 6f 37 04 e2 86 37 60 5a 2d 38 8e 43 6e 37
       1.4247939e-05 1.6079292e-05 4.1330582e-05 1.4201634e-05
0002e0 4d 1f cb 37 a1 bd 36 38 24 42 b3 37 14 ba 44 38
       2.4214061e-05 4.3568787e-05 2.1369262e-05 4.690334e-05
0002f0 1a 74 1a 38 97 3f 96 37 2b 25 28 38 59 d7 54 38
       3.682459e-05 1.7911005e-05 4.0088937e-05 5.0745297e-05
000300 29 7e 49 38 74 ca 5f 38 9f f0 ed 37 2e 3f 3b 38
       4.803963e-05 5.3355892e-05 2.836465e-05 4.4643115e-05
000310 af 80 a5 37 37 26 12 37 9e a5 a1 37 b1 e4 48 38
       1.9729456e-05 8.711176e-06 1.9269817e-05 4.78967e-05
000320 54 3f 9d 38 f1 68 2a 38 c3 e0 d5 38 63 c4 81 38
       7.498139e-05 4.0628893e-05 0.000101984966 6.187779e-05
000330 78 e3 a6 38 73 cc 92 38 73 a8 91 37 71 02 9a 37
       7.957866e-05 6.999904e-05 1.7363787e-05 1.8359367e-05
000340 79 ca d1 37 fd ea 4b 38 69 18 11 38 6a 54 0f 38
       2.5009025e-05 4.861782e-05 3.4593428e-05 3.4172474e-05
000350 ed 30 0d 38 14 10 39 38 6a da 01 38 b3 87 c9 37
       3.3662585e-05 4.412241e-05 3.095941e-05 2.4024257e-05
000360 af a6 79 38 ce 51 ef 37 e1 2d 77 37 26 dc 2c 38
       5.9521462e-05 2.8529113e-05 1.4733029e-05 4.1213025e-05
000370 8c 2c 27 37 e6 7f 65 37 65 65 0f 38 45 e1 92 37
       9.964348e-06 1.3679242e-05 3.4188288e-05 1.7509456e-05
000380 bc 9a 16 38 21 be e3 38 b1 01 09 38 0e 17 1b 38
       3.5906894e-05 0.00010859618 3.266492e-05 3.697635e-05
000390 b1 35 64 38 8e de 29 37 2f c7 8a 38 96 d8 30 38
       5.440944e-05 1.01250025e-05 6.6174536e-05 4.216338e-05
0003a0 0c d5 7f 38 4c 86 00 39 9f d9 b7 39 94 dc 7a 39
       6.0995153e-05 0.00012257061 0.0003506662 0.0002392403
0003b0 b4 90 bf 38 33 f1 98 39 5c 53 b2 38 7b 18 26 38
       9.134543e-05 0.00029171407 8.503228e-05 3.9600283e-05
0003c0 0b d7 3c 39 f3 7b 80 38 0c 4d 1b 39 67 08 79 38
       0.00018009187 6.126603e-05 0.00014810654 5.937405e-05
0003d0 c2 8e ce 37 71 b9 12 37 3a f3 12 38 a4 be b2 36
       2.462359e-05 8.745455e-06 3.5035635e-05 5.327007e-06
0003e0 c9 ed 88 37 f1 6c c3 37 57 7b 83 37 74 14 44 38
       1.632319e-05 2.3296541e-05 1.5673852e-05 4.674909e-05
0003f0 3c f2 76 38 2a fb 1c 38 1b c0 3d 37 e5 3b 94 38
       5.887657e-05 3.7427213e-05 1.1310006e-05 7.068346e-05

exp_avg f4 [16]
000000 4a 6d 40 38 f5 eb 36 3b dc ee 9d bb 2f e8 7a 3b
       4.587815e-05 0.0027911637 -0.004819734 0.0038285365
000010 4c 02 b8 3b ce 1d 42 38 f2 97 1a b9 17 a8 9f 3a
       0.005615508 4.6280962e-05 -0.00014743189 0.0012180832
000020 e4 c2 a6 3b 98 70 92 bb 70 24 8b ba 58 7f 76 3b
       0.0050891507 -0.0044689886 -0.0010615718 0.0037612524
000030 cb 62 18 3b 40 c8 82 3a 8a dc 98 3b a7 eb 54 ba
       0.0023252245 0.0009977892 0.004664962 -0.0008122273

exp_avg_sq f4 [16]
000000 c5 70 80 38 6e d3 70 38 92 ae 2d 38 cd e1 ac 38
       6.1245206e-05 5.741737e-05 4.1408995e-05 8.243658e-05
000010 ba 6f 03 39 e5 a5 0e 38 33 41 79 38 4f bd 8f 38
       0.00012534755 3.400994e-05 5.9426948e-05 6.854033e-05
000020 3b c8 34 38 e4 b5 79 38 cd 7e 75 38 5e 05 13 38
       4.3101823e-05 5.9535625e-05 5.8530644e-05 3.505253e-05
000030 67 33 7d 38 36 b4 43 38 be 91 d5 38 fa f0 89 38
       6.0367773e-05 4.6659457e-05 0.00010183778 6.5775544e-05

exp_avg f4 [10, 784]
000000 e7 ba 17 b0 bb e9 e7 36 27 ca 80 b8 d3 a3 4f ba
       -5.5199084e-10 6.9115463e-06 -6.1411694e-05 -0.0007920835
000010 49 da 5a b6 70 04 55 b6 cd e8 81 b4 bc 19 a1 35
       -3.261159e-06 -3.1742056e-06 -2.4197507e-07 1.2002924e-06
000020 f2 97 12 37 46 7a bc ba 65 8f 76 ba 4e 61 0d b9
       8.737656e-06 -0.0014379702 -0.0009405523 -0.00013483057
000030 f7 33 c6 b7 79 a6 0c b8 cd e3 23 35 15 0d 27 ba
       -2.3627637e-05 -3.353364e-05 6.1053726e-07 -0.0006372494
000040 d7 08 17 ba da fb 35 39 7b 19 5b b8 85 a7 8c 37
       -0.000576151 0.00017355327 -5.22374e-05 1.6767308e-05
000050 4a 14 f6 35 3a c8 c7 b4 42 af c3 b8 28 90 13 39
       1.8334333e-06 -3.7212322e-07 -9.330969e-05 0.00014072715
000060 9c 48 ff 37 d3 7a a3 38 0e 7c d8 37 b8 7c 04 38
       3.043218e-05 7.7953235e-05 2.5806974e-05 3.1587406e-05
000070 c8 17 06 b8 3e eb d5 b8 eb 29 e3 b4 3c c1 7c b8
       -3.1970238e-05 -0.00010200449 -4.2312544e-07 -6.0261445e-05
000080 e3 cf 70 ba 12 d6 a0 b9 3c c3 d2 35 25 a8 25 b9
       -0.0009186251 -0.00030677073 1.570304e-06 -0.00015798265
000090 a0 1b d4 ba a3 f7 9a bb f1 c8 c4 bb ea ac 1f bb
       -0.0016182549 -0.0047292276 -0.0060053994 -0.002436454
0000a0 63 dd 46 b7 b1 06 d2 b4 13 06 e4 35 db f4 e5 36
       -1.1853265e-05 -3.9120417e-07 1.6989092e-06 6.8532368e-06
0000b0 23 be d9 b6 0f 64 22 35 87 6d 10 33 4d cc 05 2e
       -6.489239e-06 6.049531e-07 3.3627227e-08 3.0422154e-11
0000c0 b2 6f ea 29 00 ed d3 16 ef 78 c9 32 06 2d 2c ba
       1.04110636e-13 3.4238457e-25 2.3454474e-08 -0.00065679883
0000d0 c1 8c a1 b9 29 67 c9 b9 d9 01 b7 2e 04 00 00 00
       -0.00030813183 -0.00038414568 8.322205e-11 6e-45
0000e0 ff ad 34 35 b2 a4 a7 b6 2a b8 97 ba c0 e2 97 ba
       6.7308423e-07 -4.996161e-06 -0.0011575271 -0.0011587963
0000f0 c7 3d ec b9 71 87 c6 b7 2c f0 52 24 c3 48 1f 35
       -0.00045059455 -2.366651e-05 4.5739925e-17 5.9338e-07
000100 3e f1 50 b8 af bb 09 bb b4 72 54 ba f6 dc 0d bb
       -4.981574e-05 -0.002101641 -0.00081042503 -0.0021646596
000110 0d 39 9b b8 8c ac 87 25 66 cf f0 b4 83 20 c4 b9
       -7.4016025e-05 2.353569e-16 -4.4854386e-07 -0.00037408256
000120 ed 86 9e ba e0 50 95 b9 17 1e 44 bb 7b 1b a8 b7
       -0.0012094654 -0.0002847975 -0.0029925162 -2.0039957e-05
000130 1a bd 63 31 dd 31 8b 38 b2 f4 bb ba 33 e7 f4 b9
       3.314034e-09 6.637324e-05 -0.0014339893 -0.00046711563
000140 53 b4 04 b8 b3 5e c9 b9 60 78 42 b7 0a d5 42 26
       -3.1639192e-05 -0.00038408264 -1.1591328e-05 6.759599e-16
000150 37 63 ac 38 37 06 9c ba 0e 57 8c ba a3 60 10 b5
       8.220079e-05 -0.0011903708 -0.0010707097 -5.3784805e-07
000160 77 46 28 b7 68 65 dd 35 43 07 59 2a d5 9b d6 36
       -1.0029987e-05 1.6495296e-06 1.9275991e-13 6.395838e-06
000170 45 6d bc b7 df d5 ca b9 98 9d 54 b6 ac 66 87 35
       -2.2462229e-05 -0.0003868779 -3.1682193e-06 1.0088165e-06
000180 e7 33 12 2d dd 25 04 1a ec 4f f2 18 01 0d 1b 2f
       8.310664e-12 2.7327546e-23 6.2636234e-24 1.4101788e-10
000190 03 a0 28 b7 4b fc 04 bb ad 75 b1 ba fc e6 ce b9
       -1.0050836e-05 -0.002029198 -0.0013539098 -0.0003946348
0001a0 9b b9 07 b8 cf 85 46 35 1d 20 16 36 66 3a 88 bb
       -3.2359367e-05 7.3955465e-07 2.2370434e-06 -0.0041573523
0001b0 30 12 1c bb 17 16 66 ba 2f e3 86 b9 5a 22 ff b7
       -0.0023814552 -0.00087770954 -0.00025727737 -3.0414365e-05
0001c0 48 41 34 35 7d fe fc 35 20 30 52 bb c7 e9 56 ba
       6.715022e-07 1.8849529e-06 -0.0032072142 -0.00081982877
0001d0 9a 2b 71 b9 54 cf 9c b9 8c 07 f4 37 2a 9d 03 b5
       -0.00022999794 -0.0002990911 2.9090581e-05 -4.9030007e-07
0001e0 73 26 57 ba 59 fe d8 ba 22 87 70 ba 0f 40 5e ba
       -0.00082073285 -0.0016555294 -0.000917541 -0.00084781734
0001f0 de 2c 6d ba 45 72 41 38 52 ac fb 37 52 ee 23 ba
       -0.0009047518 4.6121208e-05 3.0001775e-05 -0.0006253469
000200 2f 20 f9 b9 13 8d 0a bb a6 32 ce bb 65 d9 d8 ba
       -0.0004751696 -0.0021141216 -0.006292659 -0.0016544281
000210 b5 d8 52 34 f8 3b 0e b9 ab df 86 ba c5 48 95 ba
       1.9636612e-07 -0.00013564515 -0.0010290047 -0.0011389485
000220 2b c3 93 bb 4b cc ad ba 78 c1 b9 b5 f4 6b 9f b5
       -0.00450935 -0.0013259737 -1.3839881e-06 -1.1877842e-06
000230 89 d5 99 35 c6 48 17 37 e0 b0 8a b8 1f ef ca 33
       1.1461535e-06 9.017245e-06 -6.613298e-05 9.449854e-08
000240 bc c7 32 32 a4 54 d8 22 8a 76 ed 0d 23 c8 8f 35
       1.0406378e-08 5.8636534e-18 1.463479e-30 1.0712578e-06
000250 58 71 aa 37 e2 c8 d5 ba 2a 11 3c ba 25 8e 91 ba
       2.0318359e-05 -0.0016310478 -0.00071741885 -0.0011104984
000260 81 e5 b5 35 93 44 82 b4 4f 43 ff 35 87 6b c4 ba
       1.3552345e-06 -2.426428e-07 1.901857e-06 -0.0014985659
000270 f0 a3 06 bb b2 27 be ba c8 44 06 bb 01 4c 2a ba
       -0.0020544492 -0.001450768 -0.0020487774 -0.0006496311
000280 8b c4 79 b9 8d 8b 14 37 d3 98 55 ba d6 36 6f ba
       -0.00023819708 8.853979e-06 -0.0008148078 -0.00091252977
000290 2c f1 c8 ba 83 82 20 ba 7d b3 02 bb 9b f6 10 ba
       -0.0015330664 -0.00061229634 -0.001994341 -0.0005529911
0002a0 7b 37 66 b9 09 33 2e ba b6 c8 a7 ba dd 8a f7 ba
       -0.00021955177 -0.0006645178 -0.0012800905 -0.0018885989
0002b0 c9 f4 18 39 63 84 63 bb ec fb 89 b9 c9 a3 a0 b9
       0.00014587039 -0.003471636 -0.00026318373 -0.00030639608
0002c0 04 1a bd ba 9e de aa b9 78 b5 1f ba 0f f6 f4 b9
       -0.0014427309 -0.0003259079 -0.00060924096 -0.00046722635
0002d0 e5 4b 9f bb 1c 5b 44 39 5b c3 30 35 03 d4 09 b9
       -0.0048613423 0.00018725957 6.584939e-07 -0.00013144319
0002e0 81 dc 8b b9 07 b8 ee b8 99 88 96 bb 46 5d 8c bb
       -0.00026676434 -0.00011383002 -0.0045939204 -0.00428358
0002f0 5d 24 95 b6 f3 92 9b 2d 6d 68 d9 33 ad e7 07 38
       -4.4447793e-06 1.7686718e-11 1.0123845e-07 3.2402273e-05
000300 47 8c 89 ba 33 d2 cd ba a6 fb 6f b7 d4 2c a9 b5
       -0.0010494076 -0.0015702903 -1.4304102e-05 -1.2604528e-06
000310 e6 14 46 b9 1e cf 06 b9 c0 e5 7f bb f5 89 ce bb
       -0.00018890537 -0.00012856393 -0.0039046854 -0.006303067
000320 81 9a 7d bb 33 ca bf ba 56 ad 6e b9 53 f3 67 b8
       -0.0038696828 -0.0014632404 -0.00022762021 -5.5301305e-05
000330 80 8c 89 ba 58 63 90 ba e4 ce 02 bb 57 e8 01 ba
       -0.0010494143 -0.0011015935 -0.0019959742 -0.0004955581
000340 ca 6d 0f ba 97 d8 be b6 23 8e 71 b8 9e f0 e9 b9
       -0.0005471377 -5.6876556e-06 -5.7591253e-05 -0.00044620497
000350 ab 85 15 ba c6 8b 31 b9 e4 1a 8f 36 a9 ad bd 38
       -0.0005703817 -0.00016932105 4.2648626e-06 9.044569e-05
000360 e3 53 97 38 44 10 8f b9 ec 6d 67 ba 56 00 40 ba
       7.215866e-05 -0.00027287204 -0.00088283303 -0.0007324269
000370 5b 21 1c b9 7c a6 74 b9 26 9c 3c ba 33 7e 4c 35
       -0.00014889745 -0.00023331674 -0.0007194899 7.6179566e-07
000380 fc 9a f7 37 96 01 06 bb 93 8b ae bb 44 6c b3 bb
       2.9516865e-05 -0.0020447723 -0.005326697 -0.0054755528
000390 e9 51 66 bb e8 0e 9e b6 31 fb bd 35 e2 d5 7c b8
       -0.0035144037 -4.7105023e-06 1.4154704e-06 -6.0280676e-05
0003a0 20 b6 8c b7 00 b4 9c b7 c9 d5 fc b6 9f 5f 80 b6
       -1.677411e-05 -1.8680468e-05 -7.535073e-06 -3.825829e-06
0003b0 e4 54 68 b6 f9 37 bd b4 f9 7b 7c b8 04 61 d4 b7
       -3.4620107e-06 -3.524472e-07 -6.019694e-05 -2.5317546e-05
0003c0 e6 71 d1 b8 c4 bb c0 b5 ad 5c c1 b3 8c 69 61 34
       -9.987112e-05 -1.4359762e-06 -9.0041205e-08 2.0993156e-07
0003d0 b9 38 85 ae 22 66 b2 84 4f 1f 22 35 bd 87 6a 39
       -6.058216e-11 -4.1941393e-36 6.039526e-07 0.00022366545
0003e0 9c 31 02 bb 97 e3 df b9 27 cc d6 b7 cd 44 1d 30
       -0.0019865995 -0.00042703442 -2.5605854e-05 5.721404e-10
0003f0 ea 71 a0 2a 5e 0b 86 36 af 70 d3 ba b7 66 0e ba
       2.8500753e-13 3.9948345e-06 -0.0016131605 -0.0005432176
